{"format": "graph-model", "generatedBy": "2.13.0", "convertedBy": "TensorFlow.js Converter v4.8.0", "signature": {"inputs": {"relative_humidity:0": {"name": "relative_humidity:0", "dtype": "DT_FLOAT", "tensorShape": {"dim": [{"size": "-1"}]}}, "unknown:0": {"name": "unknown:0", "dtype": "DT_RESOURCE", "tensorShape": {}, "resourceId": 254}, "temperature:0": {"name": "temperature:0", "dtype": "DT_FLOAT", "tensorShape": {"dim": [{"size": "-1"}]}}, "precipitation:0": {"name": "precipitation:0", "dtype": "DT_FLOAT", "tensorShape": {"dim": [{"size": "-1"}]}}, "year": {"name": "year:0", "dtype": "DT_INT64", "tensorShape": {"dim": [{"size": "-1"}]}}}, "outputs": {"output_1": {"name": "Identity:0", "dtype": "DT_FLOAT", "tensorShape": {"dim": [{"size": "-1"}, {"size": "1"}]}}}}, "modelTopology": {"node": [{"name": "precipitation", "op": "Placeholder", "attr": {"shape": {"shape": {"dim": [{"size": "-1"}]}}, "dtype": {"type": "DT_FLOAT"}}}, {"name": "relative_humidity", "op": "Placeholder", "attr": {"dtype": {"type": "DT_FLOAT"}, "shape": {"shape": {"dim": [{"size": "-1"}]}}}}, {"name": "temperature", "op": "Placeholder", "attr": {"shape": {"shape": {"dim": [{"size": "-1"}]}}, "dtype": {"type": "DT_FLOAT"}}}, {"name": "unknown", "op": "Placeholder", "attr": {"dtype": {"type": "DT_RESOURCE"}, "shape": {"shape": {}}}}, {"name": "year", "op": "Placeholder", "attr": {"dtype": {"type": "DT_INT64"}, "shape": {"shape": {"dim": [{"size": "-1"}]}}}}, {"name": "Func/StatefulPartitionedCall/random_forest_model/StatefulPartitionedCall/input_control_node/_7", "op": "NoOp", "input": ["^precipitation", "^relative_humidity", "^temperature", "^year", "^unknown"], "attr": {"_has_manual_control_dependencies": {"b": true}}}, {"name": "StatefulPartitionedCall/random_forest_model/StatefulPartitionedCall/PartitionedCall/Cast", "op": "Cast", "input": ["year", "^Func/StatefulPartitionedCall/random_forest_model/StatefulPartitionedCall/input_control_node/_7"], "attr": {"DstT": {"type": "DT_FLOAT"}, "Truncate": {"b": false}, "SrcT": {"type": "DT_INT64"}}}, {"name": "StatefulPartitionedCall/random_forest_model/StatefulPartitionedCall/Const", "op": "Const", "input": ["^Func/StatefulPartitionedCall/random_forest_model/StatefulPartitionedCall/input_control_node/_7"], "attr": {"dtype": {"type": "DT_FLOAT"}, "value": {"tensor": {"dtype": "DT_FLOAT", "tensorShape": {"dim": [{}, {}]}}}}}, {"name": "StatefulPartitionedCall/random_forest_model/StatefulPartitionedCall/Const_1", "op": "Const", "input": ["^Func/StatefulPartitionedCall/random_forest_model/StatefulPartitionedCall/input_control_node/_7"], "attr": {"dtype": {"type": "DT_INT32"}, "value": {"tensor": {"dtype": "DT_INT32", "tensorShape": {"dim": [{}, {}]}}}}}, {"name": "StatefulPartitionedCall/random_forest_model/StatefulPartitionedCall/RaggedConstant/values", "op": "Const", "input": ["^Func/StatefulPartitionedCall/random_forest_model/StatefulPartitionedCall/input_control_node/_7"], "attr": {"value": {"tensor": {"dtype": "DT_INT32", "tensorShape": {"dim": [{}]}}}, "dtype": {"type": "DT_INT32"}}}, {"name": "StatefulPartitionedCall/random_forest_model/StatefulPartitionedCall/RaggedConstant/Const", "op": "Const", "input": ["^Func/StatefulPartitionedCall/random_forest_model/StatefulPartitionedCall/input_control_node/_7"], "attr": {"dtype": {"type": "DT_INT64"}, "value": {"tensor": {"dtype": "DT_INT64", "tensorShape": {"dim": [{"size": "1"}]}}}}}, {"name": "StatefulPartitionedCall/random_forest_model/StatefulPartitionedCall/RaggedConstant/Const_1", "op": "Const", "input": ["^Func/StatefulPartitionedCall/random_forest_model/StatefulPartitionedCall/input_control_node/_7"], "attr": {"dtype": {"type": "DT_INT64"}, "value": {"tensor": {"dtype": "DT_INT64", "tensorShape": {"dim": [{"size": "1"}]}}}}}, {"name": "StatefulPartitionedCall/random_forest_model/StatefulPartitionedCall/stack", "op": "Pack", "input": ["precipitation", "relative_humidity", "temperature", "StatefulPartitionedCall/random_forest_model/StatefulPartitionedCall/PartitionedCall/Cast"], "attr": {"T": {"type": "DT_FLOAT"}, "N": {"i": "4"}, "axis": {"i": "1"}}}, {"name": "StatefulPartitionedCall/random_forest_model/StatefulPartitionedCall/inference_op", "op": "SimpleMLInferenceOpWithHandle", "input": ["StatefulPartitionedCall/random_forest_model/StatefulPartitionedCall/stack", "StatefulPartitionedCall/random_forest_model/StatefulPartitionedCall/Const", "StatefulPartitionedCall/random_forest_model/StatefulPartitionedCall/Const_1", "StatefulPartitionedCall/random_forest_model/StatefulPartitionedCall/RaggedConstant/values", "StatefulPartitionedCall/random_forest_model/StatefulPartitionedCall/RaggedConstant/Const", "StatefulPartitionedCall/random_forest_model/StatefulPartitionedCall/RaggedConstant/Const_1", "unknown"], "attr": {"dense_output_dim": {"i": "1"}, "_has_manual_control_dependencies": {"b": true}}}, {"name": "Identity", "op": "Identity", "input": ["StatefulPartitionedCall/random_forest_model/StatefulPartitionedCall/inference_op"], "attr": {"T": {"type": "DT_FLOAT"}}}], "library": {}, "versions": {"producer": 1482}}, "modelInitializer": {"node": [{"name": "Func/StatefulPartitionedCall/input_control_node/_0", "op": "NoOp", "attr": {"_has_manual_control_dependencies": {"b": true}}}, {"name": "409", "op": "Const", "attr": {"_has_manual_control_dependencies": {"b": true}, "dtype": {"type": "DT_STRING"}, "value": {"tensor": {"dtype": "DT_STRING", "tensorShape": {}}}}}, {"name": "Func/StatefulPartitionedCall/StatefulPartitionedCall/input_control_node/_8", "op": "NoOp", "input": ["^Func/StatefulPartitionedCall/input_control_node/_0"], "attr": {"_has_manual_control_dependencies": {"b": true}}}, {"name": "StatefulPartitionedCall/StatefulPartitionedCall/SimpleMLCreateModelResource", "op": "SimpleMLCreateModelResource", "input": ["^Func/StatefulPartitionedCall/StatefulPartitionedCall/input_control_node/_8"], "attr": {"_has_manual_control_dependencies": {"b": true}, "shared_name": {"s": "c2ltcGxlX21sX21vZGVsXzI5Yzg2MDA2LTZiMWEtNDAxNC05MzY5LWRiZWI2ZWNlZjgxYV9sb2FkXzE="}, "container": {"s": ""}}}, {"name": "Func/StatefulPartitionedCall/StatefulPartitionedCall/output_control_node/_10", "op": "NoOp", "input": ["^StatefulPartitionedCall/StatefulPartitionedCall/SimpleMLCreateModelResource"], "attr": {"_has_manual_control_dependencies": {"b": true}}}, {"name": "Func/StatefulPartitionedCall/output_control_node/_2", "op": "NoOp", "input": ["^Func/StatefulPartitionedCall/StatefulPartitionedCall/output_control_node/_10"], "attr": {"_has_manual_control_dependencies": {"b": true}}}, {"name": "StatefulPartitionedCall/StatefulPartitionedCall/NoOp", "op": "NoOp", "input": ["^StatefulPartitionedCall/StatefulPartitionedCall/SimpleMLCreateModelResource"], "attr": {"_has_manual_control_dependencies": {"b": true}}}, {"name": "StatefulPartitionedCall/StatefulPartitionedCall/Identity", "op": "Identity", "input": ["StatefulPartitionedCall/StatefulPartitionedCall/SimpleMLCreateModelResource", "^StatefulPartitionedCall/StatefulPartitionedCall/NoOp"], "attr": {"T": {"type": "DT_RESOURCE"}}}, {"name": "Func/StatefulPartitionedCall/StatefulPartitionedCall/output/_9", "op": "Identity", "input": ["StatefulPartitionedCall/StatefulPartitionedCall/Identity"], "attr": {"T": {"type": "DT_RESOURCE"}}}, {"name": "StatefulPartitionedCall/NoOp", "op": "NoOp", "input": ["^Func/StatefulPartitionedCall/StatefulPartitionedCall/output_control_node/_10"], "attr": {"_has_manual_control_dependencies": {"b": true}}}, {"name": "StatefulPartitionedCall/Identity", "op": "Identity", "input": ["Func/StatefulPartitionedCall/StatefulPartitionedCall/output/_9", "^StatefulPartitionedCall/NoOp"], "attr": {"T": {"type": "DT_RESOURCE"}}}, {"name": "Func/StatefulPartitionedCall/output/_1", "op": "Identity", "input": ["StatefulPartitionedCall/Identity"], "attr": {"T": {"type": "DT_RESOURCE"}, "_has_manual_control_dependencies": {"b": true}}}, {"name": "Func/StatefulPartitionedCall_1/input_control_node/_3", "op": "NoOp", "input": ["^409", "^Func/StatefulPartitionedCall/output/_1"], "attr": {"_has_manual_control_dependencies": {"b": true}}}, {"name": "Func/StatefulPartitionedCall_1/input/_5", "op": "Identity", "input": ["Func/StatefulPartitionedCall/output/_1", "^Func/StatefulPartitionedCall_1/input_control_node/_3"], "attr": {"T": {"type": "DT_RESOURCE"}}}, {"name": "Func/StatefulPartitionedCall_1/StatefulPartitionedCall/input_control_node/_11", "op": "NoOp", "input": ["^Func/StatefulPartitionedCall_1/input_control_node/_3"], "attr": {"_has_manual_control_dependencies": {"b": true}}}, {"name": "Func/StatefulPartitionedCall_1/StatefulPartitionedCall/input/_13", "op": "Identity", "input": ["Func/StatefulPartitionedCall_1/input/_5", "^Func/StatefulPartitionedCall_1/StatefulPartitionedCall/input_control_node/_11"], "attr": {"T": {"type": "DT_RESOURCE"}}}, {"name": "Func/StatefulPartitionedCall_1/input/_4", "op": "Identity", "input": ["409", "^Func/StatefulPartitionedCall_1/input_control_node/_3"], "attr": {"T": {"type": "DT_STRING"}}}, {"name": "Func/StatefulPartitionedCall_1/StatefulPartitionedCall/input/_12", "op": "Identity", "input": ["Func/StatefulPartitionedCall_1/input/_4", "^Func/StatefulPartitionedCall_1/StatefulPartitionedCall/input_control_node/_11"], "attr": {"T": {"type": "DT_STRING"}}}, {"name": "StatefulPartitionedCall_1/StatefulPartitionedCall/StaticRegexReplace", "op": "StaticRegexReplace", "input": ["Func/StatefulPartitionedCall_1/StatefulPartitionedCall/input/_12"], "attr": {"rewrite": {"s": ""}, "replace_global": {"b": true}, "pattern": {"s": "MzdiZTk5NTg4OTIxNDNkNGRvbmU="}}}, {"name": "StatefulPartitionedCall_1/StatefulPartitionedCall/simple_ml/SimpleMLLoadModelFromPathWithHandle", "op": "SimpleMLLoadModelFromPathWithHandle", "input": ["Func/StatefulPartitionedCall_1/StatefulPartitionedCall/input/_13", "StatefulPartitionedCall_1/StatefulPartitionedCall/StaticRegexReplace"], "attr": {"output_types": {"list": {}}, "allow_slow_inference": {"b": true}, "_has_manual_control_dependencies": {"b": true}, "file_prefix": {"s": "MzdiZTk5NTg4OTIxNDNkNA=="}}}, {"name": "Func/StatefulPartitionedCall_1/StatefulPartitionedCall/output_control_node/_15", "op": "NoOp", "input": ["^StatefulPartitionedCall_1/StatefulPartitionedCall/simple_ml/SimpleMLLoadModelFromPathWithHandle"], "attr": {"_has_manual_control_dependencies": {"b": true}}}, {"name": "Func/StatefulPartitionedCall_1/output_control_node/_7", "op": "NoOp", "input": ["^Func/StatefulPartitionedCall_1/StatefulPartitionedCall/output_control_node/_15"], "attr": {"_has_manual_control_dependencies": {"b": true}}}, {"name": "NoOp", "op": "NoOp", "input": ["^Func/StatefulPartitionedCall/output_control_node/_2", "^Func/StatefulPartitionedCall_1/output_control_node/_7"], "attr": {"_has_manual_control_dependencies": {"b": true}}}, {"name": "Identity", "op": "Identity", "input": ["Func/StatefulPartitionedCall/output/_1", "^Func/StatefulPartitionedCall_1/output_control_node/_7", "^NoOp"], "attr": {"T": {"type": "DT_RESOURCE"}}}], "versions": {"producer": 1482}}, "initializerSignature": {"outputs": {"Identity:0": {"name": "Identity:0", "dtype": "DT_RESOURCE", "tensorShape": {}, "resourceId": 254}}}, "weightsManifest": [{"paths": ["group1-shard1of1.bin"], "weights": [{"name": "StatefulPartitionedCall/random_forest_model/StatefulPartitionedCall/Const", "shape": [0, 0], "dtype": "float32"}, {"name": "StatefulPartitionedCall/random_forest_model/StatefulPartitionedCall/Const_1", "shape": [0, 0], "dtype": "int32"}, {"name": "StatefulPartitionedCall/random_forest_model/StatefulPartitionedCall/RaggedConstant/values", "shape": [0], "dtype": "int32"}, {"name": "StatefulPartitionedCall/random_forest_model/StatefulPartitionedCall/RaggedConstant/Const", "shape": [1], "dtype": "int32"}, {"name": "StatefulPartitionedCall/random_forest_model/StatefulPartitionedCall/RaggedConstant/Const_1", "shape": [1], "dtype": "int32"}, {"name": "409", "shape": [], "dtype": "string"}]}]}